人工智能与机器学习/lab/mo-lab3/results/temp.pth (torch, 18043 bytes, 12 tensors)

mobilebone.0.0.weight f4 [32, 3, 3, 3]
-0.12488407 0.05267512 -0.008468739 -0.012946948 0.0043226383 0.005684913 0.1482034 0.12198375
0.090355836 0.104097165 0.12258999 -0.012451032 0.0066127963 0.07430019 0.057712477 0.016829468
-0.15700851 -0.012691193 0.0062958924 -0.0915424 0.07654452 0.0019930394 -0.07734274 -0.023996605
0.038921617 0.030572958 -0.147387 -0.0704557 0.01807917 0.060442593 -0.087369554 -0.08685535
0.028172266 0.056453697 -0.25876576 -0.06630443 -0.031846337 -0.056054473 -0.03740356 0.0640321
0.033275355 -0.00036170575 0.087867744 -0.07916617 -0.14447904 -0.033620767 0.13549352 0.09323485
0.027271554 0.111647464 0.030064281 0.002291518 0.11622274 0.1062939 -0.110735185 0.10339353
0.04946155 -0.051560212 -0.105308466 0.07783231 0.05386183 -0.046013955 -0.065069914 0.21294118
-0.1748276 -0.06683186 -0.0065953685 0.044299405 -0.049876884 0.015656786 -0.14235048 0.0133803515
0.18704969 -0.08067135 -0.06506011 -0.052196257 -0.070816465 -0.086279064 -0.02176868 -0.17461416
-0.08245379 -0.15281208 -0.14488657 0.14977534 -0.004122103 0.12892155 -0.05394913 0.0113653205
-0.0024419571 -0.14890179 0.12674633 0.086395845 -0.054578844 0.030511554 0.012605537 -0.17505784
0.03879155 0.0073659522 0.2033033 0.005389402 0.03871274 0.0013741858 -0.030322604 0.054746136
0.03759189 -0.0064825513 -0.05625871 0.045518294 0.009197501 0.08397141 0.04425695 0.051453684
-0.06633182 0.09284172 0.12663732 -0.021456512 -0.052887693 0.017670585 -0.09480276 -0.07338501
-0.07045742 -0.1764235 0.044386193 -0.052073434 0.07549431 -0.028224252 -0.083660215 0.13545883
0.08000871 -0.076597966 -0.0035611966 -0.06730869 -0.0011647792 -0.11886072 0.043703776 0.10600035
-0.0004972227 0.0274777 -0.02526764 0.12473718 -0.16900246 0.09474339 -0.044958033 -0.017653296
-0.053749103 0.0008392934 -0.047128465 -0.039859105 -0.004029765 0.030573778 0.12962165 -0.1507855
0.003802655 -0.07694344 0.021889038 0.12437476 -0.10867008 0.042489816 -0.025860826 0.14287503
0.22808678 -0.013809399 -0.12802367 -0.05339631 0.087460235 0.090667725 0.09649223 0.052666474
-0.06231255 -0.09712595 -0.14989735 -0.01930344 0.025407871 0.22035427 0.05474786 0.029930832
-0.07784402 -0.011401362 -0.013762756 -0.016601758 0.06638564 0.021060826 0.04370386 0.094175555
0.011033038 0.06348088 0.06512229 -0.087567024 -0.0907002 0.17276475 0.04433481 -0.05547622
0.06428432 0.092949934 0.069477595 0.041746154 0.06395452 0.04277426 0.104539044 0.06955986
0.11105087 0.11878136 -0.04469401 0.07698597 -0.14906456 -0.090723366 0.02272476 0.010543887
0.07669607 -0.005230665 0.16324198 0.16625337 -0.005785068 0.06864998 0.09368793 -0.15133283
-0.012188556 0.047356945 -0.07428904 0.05813495 -0.06483583 -0.078016415 -0.17782801 -0.05859211
-0.035878226 0.004562794 0.07752696 0.08387273 0.13121869 0.018998345 0.020555858 -0.05621112
0.07160735 0.01092293 0.016928716 0.032371353 -0.101366065 -0.025615701 0.18825313 -0.03152736
-0.045073394 -0.1095964 0.1084195 -0.0787808 0.06263906 -0.015917711 0.13447736 -0.053395685
-0.09804485 0.05443847 -0.024427569 0.10963277 -0.090284064 -0.14431007 0.0007052051 -0.0646713
00000000: 38c3 ffbd dec1 573d 77c0 0abc 701f 54bc
00000010: eba4 8d3b 8248 ba3b a2c2 173e 9ed2 f93d
00000020: 7b0c b93d e530 d53d 7610 fb3d 6aff 4bbc
00000030: 28b0 d83b b32a 983d eb63 6c3d f4dd 893c
00000040: d7c6 20be b9ee 4fbc c64d ce3b 957a bbbd
00000050: 60c3 9c3d a79d 023b df65 9ebd 8794 c4bc
00000060: 466c 1f3d 2474 fa3c 9eec 16be 144b 90bd
00000070: c41a 943c a792 773d cfee b2bd 38e1 b1bd
00000080: 86c9 e63c fe3b 673d f27c 84be 9eca 87bd
00000090: 4e71 02bd 6099 65bd 7a34 19bd 4323 833d
000000a0: bd4b 083d 53a3 bdb9 01f4 b33d df21 a2bd
000000b0: 50f2 13be eeb5 09bd d0be 0a3e eaf1 be3d
000000c0: 9868 df3c 6da7 e43d 5e49 f63c 4b2d 163b
000000d0: 3006 ee3d 9eb0 d93d 21c9 e2bd fdbf d33d
000000e0: 3298 4a3d cd30 53bd f7ab d7bd 8c66 9f3d
000000f0: 399e 5c3d 2179 3cbd 6043 85bd 410d 5a3e
00000100: 0206 33be 24df 88bd f61d d8bb 4b73 353d
00000110: b44b 4cbd a942 803c 53c4 11be 4339 5b3c
00000120: f489 3f3e 0537 a5bd 3c3e 85bd becb 55bd
00000130: 3908 91bd 14b3 b0bd 3b54 b2bc 0ece 32be
00000140: 88dd a8bd c57a 1cbe 255d 14be b55e 193e
00000150: b512 87bb 0304 043e c3f9 5cbd 9c35 3a3c
00000160: 3e09 20bb b679 18be cac9 013e 4ef0 b03d
00000170: 118e 5fbd 5ef3 f93c 7487 4e3c 5d42 33be
00000180: e3e3 1e3d 165e f13b be2e 503e 9599 b03b
00000190: 4091 1e3d 061e b43a 1c67 f8bc 7c3d 603d
000001a0: f4f9 193d 956b d4bb 886f 66bd 6471 3a3d
000001b0: 1db1 163c 34f9 ab3d c746 353d 19c1 523d
000001c0: fad8 87bd cd23 be3d 37ad 013e 91c5 afbc
000001d0: c4a0 58bd e7c1 903c f327 c2bd e14a 96bd
000001e0: fb4b 90bd 5da8 34be 4cce 353d f44a 55bd
000001f0: c39c 9a3d 8c36 e7bc 0c56 abbd b8b5 0a3e
00000200: 9bdb a33d 65df 9cbd f762 69bb 23d9 89bd
00000210: 81ab 98ba 406d f3bd bb02 333d b616 d93d
00000220: 0d58 02ba ea18 e13c 15fe cebc 3576 ff3d
00000230: fb0e 2dbe d308 c23d ea25 38bd a59d 90bc
00000240: 0528 5cbd 0704 5c3a c709 41bd 4d43 23bd
00000250: 1e0c 84bb dc75 fa3c 8abb 043e 8467 1abe
00000260: f735 793b 8694 9dbd a450 b33c 32b8 fe3d
00000270: 6b8e debd cd09 2e3d 15da d3bc d54d 123e
00000280: 958f 693e d140 62bc a318 03be 17b6 5abd
00000290: 5a1e b33d 00b0 b93d b89d c53d cdb8 573d
000002a0: 723b 7fbd f8e9 c6bd b17e 19be 3f22 9ebc
000002b0: 2b24 d03c 8da4 613e 4b3f 603d 8131 f53c
000002c0: b06c 9fbd c7cc 3abc 2f7d 61bc 6900 88bc
000002d0: 32f5 873d c187 ac3c d202 333d 1ddf c03d
000002e0: eac3 343c 4302 823d d65e 853d 5756 b3bd
000002f0: 07c1 b9bd 3ee9 303e 6b98 353d 083b 63bd
00000300: 7fa7 833d 895c be3d 454a 8e3d 04fe 2a3d
00000310: 96fa 823d 1034 2f3d 9118 d63d 6675 8e3d
00000320: a36e e33d a443 f33d 1111 37bd d2aa 9d3d
00000330: 61a4 18be 2ccd b9bd 4729 ba3c 44c0 2c3c
00000340: d412 9d3d 0066 abbb e828 273e 533e 2a3e
00000350: ab90 bdbb 5c98 8c3d 75df bf3d fef6 1abe
00000360: 82b2 47bc 5bf9 413d da24 98bd ea1e 6e3d
00000370: a6c8 84bd 12c7 9fbd 8c18 36be 48fe 6fbd
00000380: 0cf5 12bd 7e83 953b 74c6 9e3d 77c5 ab3d
00000390: 315e 063e 6ba2 9b3c c264 a83c a23d 66bd
000003a0: e0a6 923d 17f6 323c 17ae 8a3c d397 043d
000003b0: 0399 cfbd 05d8 d1bc 6ec5 403e d522 01bd
000003c0: e19e 38bd 1474 e0bd 0b0b de3d d457 a1bd
000003d0: e848 803d dc65 82bc 6fb4 093e 6fb5 5abd
000003e0: bdcb c8bd e0fa 5e3d 531c c8bc 2587 e03d
000003f0: dae6 b8bd 05c6 13be 83dd 383a 6372 84bd

mobilebone.0.1.weight f4 [32]
0.9233667 0.99406964 0.9853521 1.0156032 0.9677513 1.0345019 1.0516981 0.943878
1.0309694 0.9983058 0.99010795 0.985506 0.9936883 1.0622641 1.0270469 1.0148052
0.998173 0.9660316 0.96672726 0.93276393 1.000611 1.0606194 0.9623684 1.0177196
1.0606315 0.94954675 1.0389316 1.013761 0.988838 0.9807361 0.95230633 0.98619336
00000000: c361 6c3f 597b 7e3f 0940 7c3f 49ff 813f
00000010: 8dbe 773f 8f6a 843f 0b9e 863f fda1 713f
00000020: cef6 833f f890 7f3f b777 7d3f 1f4a 7c3f
00000030: 5b62 7e3f 45f8 873f 4676 833f 23e5 813f
00000040: 4488 7f3f d94d 773f 707b 773f 9ec9 6e3f
00000050: 0514 803f 60c2 873f c75d 763f a344 823f
00000060: c6c2 873f 7f15 733f b6fb 843f ecc2 813f
00000070: 7d24 7d3f 8511 7b3f 59ca 733f 2b77 7c3f

mobilebone.0.1.bias f4 [32]
-0.0052335956 -0.055134404 0.035740234 -0.10859521 -0.0034180484 -0.04568576 -0.051724173 0.017488593
-0.06386715 -0.037494987 0.027242951 -0.025864651 -0.05729254 -0.049407892 0.07736869 -0.023659049
0.011915822 0.033461343 0.010861692 0.00033926187 0.02518811 -0.09114745 0.076458514 0.08669767
0.052059516 -0.043875616 -0.01846119 0.045255266 -0.04702592 0.08133417 -0.02589247 0.047745224
00000000: 957e abbb 9dd4 61bd 5a64 123d 2a67 debd
00000010: 5601 60bb fe20 3bbd badc 53bd 3d44 8f3c
00000020: c8cc 82bd 5894 19bd 9c2c df3c 1be2 d3bc
00000030: 95ab 6abd ee5f 4abd 7a73 9e3d 9fd0 c1bc
00000040: 943a 433c c30e 093d 3df5 313c f5de b139
00000050: 4c57 ce3c 84ab babd 4896 9c3d 8c8e b13d
00000060: 5c3c 553d ebb6 33bd ec3b 97bc 965d 393d
00000070: 409e 40bd 8892 a63d 721c d4bc 7f90 433d

mobilebone.0.1.running_mean f4 [32]
0.16621162 -0.031556934 -0.31195673 0.048295144 -0.0679633 0.14951469 0.08052071 0.58270293
-0.02012264 -0.32315516 -0.12456709 -0.17766511 0.10976353 -0.034069676 -0.109672174 0.08876331
-0.3706327 0.18406296 -0.18982847 0.37227973 -0.045846608 0.06285646 0.23247468 -0.3464232
-0.26949725 -0.24119475 -0.17927001 -0.22948399 0.26181558 -0.09289989 0.17113721 0.15883829
00000000: 6133 2a3e d841 01bd cbb8 9fbe 21d1 453d
00000010: 5830 8bbd 611a 193e 0be8 a43d 052c 153f
00000020: 3cd8 a4bc 9874 a5be 081d ffbd d8ed 35be
00000030: b4cb e03d a58c 0bbd ce9b e0bd 8ac9 b53d
00000040: 92c3 bdbe 007b 3c3e 6562 42be 739b be3e
00000050: a7c9 3bbd e3ba 803d d80d 6e3e 625e b1be
00000060: 8bfb 89be c2fb 76be 8f92 37be dafd 6abe
00000070: b10c 863e 4c42 bebd 983e 2f3e 81a6 223e

mobilebone.0.1.running_var f4 [32]
0.009444766 0.0036863375 0.038310744 0.002026835 0.0036922486 0.008856604 0.00506673 0.12084878
0.0016133781 0.043752745 0.0070780637 0.012224929 0.0062142434 0.0017099264 0.0062824897 0.004040169
0.04667039 0.011493289 0.012904582 0.045610875 0.0046278937 0.004350006 0.017828643 0.04111248
0.02361556 0.027107768 0.011511319 0.019968705 0.028069053 0.0046472684 0.01041379 0.00839892
00000000: 38be 1a3c 7b96 713b baeb 1c3d a6d4 043b
00000010: a7f9 713b 4a1b 113c d006 a63b 917f f73d
00000020: fc77 d33a 1436 333d 1aef e73b 124b 483c
00000030: daa0 cb3b 9c1f e03a 58dd cd3b 6563 843b
00000040: 7329 3f3d 594e 3c3c bd6d 533c 78d2 3a3d
00000050: 96a5 973b 7f8a 8e3b 600d 923c 8f65 283d
00000060: 6b75 c13c 1c11 de3c f999 3c3c 6995 a33c
00000070: 12f1 e53c 1d48 983b 9a9e 2a3c a09b 093c

mobilebone.1.0.weight f4 [64, 32, 1, 1]
-0.024098756 -0.14655398 0.17365439 -0.15924342 -0.1533849 -0.052910697 -0.077159114 -0.14173746
-0.3150999 -0.07545806 0.08609733 -0.43143645 0.11540904 -0.20925741 0.16130638 -0.16649887
-0.17897989 -0.07782691 -0.054283965 -0.14363772 0.08312442 -0.011990485 0.26823846 0.17015325
-0.25212336 0.04219592 -0.07611008 -0.030031707 0.011851695 0.04535355 -0.13416412 -0.047832593
-0.028333975 -0.07475803 -0.14387588 -0.04979355 0.08922998 -0.14308581 -0.21891259 0.15890469
-0.18117814 0.043675378 0.37644455 0.09263368 -0.07679326 0.13218272 0.14983809 -0.18418838
-0.17419074 0.10194461 -0.38912815 -0.40454805 0.033878766 0.15262985 0.0196629 -0.04670019
0.14998832 -0.31906688 -0.25700527 -0.2518929 0.11547353 0.053638253 -0.07061993 -0.09425979
-0.113535576 -0.09804567 0.06786402 0.14727286 -0.12831327 0.11370101 0.03710635 0.18592007
0.100693114 0.31214175 0.29021537 -0.2717583 -0.2940267 -0.05792854 -0.23193412 0.24575481
0.17658615 -0.30754492 -0.15645508 0.049685415 0.4028342 0.2129856 -0.227005 -0.24239731
0.15309975 0.07839102 0.08265443 -0.18163313 0.052752085 -0.002112753 -0.016998194 -0.00032521997
0.15403862 0.06875925 -0.27877903 -0.058625307 -0.17283039 -0.16337515 -0.1376893 -0.057733964
-0.19028178 0.030154359 0.049467 -0.45007148 0.00436599 -0.30664816 -0.00812931 0.18571377
-0.19752994 0.26105052 -0.062359236 0.06894988 0.065278456 -0.21414974 -0.16549194 -0.28126192
0.19278264 -0.108337745 0.057288148 0.20275022 -0.0041243574 -0.25638536 -0.11166285 -0.019097388
0.07105947 -0.13109714 -0.013903245 0.13850057 -0.094132155 0.027904525 0.04893174 0.04847579
0.08501006 -0.083911836 0.0027819357 -0.018971093 -0.22554837 -0.28450283 -0.13224791 -0.18059324
0.016766334 0.5508059 -0.04938766 -0.030123105 -0.2230342 -0.2817812 -0.20596746 0.05556274
-0.18420048 -0.09959486 0.18560445 0.08137806 0.09647272 -0.25067085 0.08742489 -0.029905101
0.09352055 -0.29178008 0.20166296 -0.17170157 0.30976537 -0.37314266 -0.012190255 0.31004855
-0.34320164 0.17536785 -0.090152614 -0.16898464 -0.20755307 -0.27377325 0.06829248 0.1422294
0.18435755 -0.06075444 -0.10279369 -0.26257557 0.23334241 -0.031055294 0.030590301 0.18143928
-0.0722144 -0.39614734 -0.018769994 0.30032885 -0.025984421 0.16727862 -0.030781968 0.13843776
0.02748492 -0.22106072 -0.016031412 0.11094188 -0.09414241 -0.0508463 -0.038409505 -0.052285984
-0.10641511 0.052472543 -0.08020811 -0.21544267 0.13567083 -0.014750992 -0.10362665 -0.10403648
0.16979355 -0.1683715 0.17897505 0.1788745 0.033359606 0.05566584 -0.27976242 -0.033277154
0.107462615 -0.20881785 0.02344617 0.025609521 0.15944117 -0.20096932 0.3969418 0.09956415
-0.11060357 -0.07184067 -0.5025232 -0.3456818 -0.22169569 -0.12736401 0.24845976 0.030610224
-0.36057708 -0.3270838 -0.1892068 0.1875522 -0.3096844 -0.30155218 0.24956799 -0.13087188
0.021772917 0.170007 -0.0034674709 0.19090027 0.09413049 -0.31709874 0.21426299 0.16468088
-0.014548536 -0.14803085 -0.16152595 0.049030382 0.2400599 -0.13645256 0.0015474455 -0.3178268
00000000: c16a c5bc 3f12 16be 75d2 313e b510 23be
00000010: ee10 1dbe e3b8 58bd 9905 9ebd a023 11be
00000020: c654 a1be c189 9abd cc53 b03d 3de5 dcbe
00000030: 935b ec3d 9347 56be 802d 253e ae7e 2abe
00000040: 8146 37be b763 9fbd dd58 5ebd c415 13be
00000050: 233d aa3d bd73 44bc 8d56 893e a73c 2e3e
00000060: 5016 81be a1d5 2c3d 9adf 9bbd 0e05 f6bc
00000070: 9d2d 423c a5c4 393d 5262 09be 1cec 43bd
00000080: a71c e8bc bd1a 99bd 3354 13be 52f4 4bbd
00000090: 35be b63d 1685 12be 9f2a 60be e9b7 223e
000000a0: c386 39be f4e4 323d 57bd c03e bab6 bd3d
000000b0: c945 9dbd e85a 073e 286f 193e e19b 3cbe
000000c0: 0f5f 32be 56c8 d03d ce3b c7be ec20 cfbe
000000d0: 76c4 0a3d 004b 1c3e 1714 a13c b348 3fbd
000000e0: 8a96 193e bc5c a3be 3296 83be 1bf8 80be
000000f0: 637d ec3d c9b3 5b3d 2fa1 90bd 470b c1bd
00000100: 5785 e8bd 2bcc c8bd 4bfc 8a3d b2ce 163e
00000110: 8e64 03be 13dc e83d d4fc 173d d561 3e3e
00000120: 3138 ce3d 0bd1 9f3e 1c97 943e e723 8bbe
00000130: ab8a 96be 7a46 6dbd 2380 6dbe 26a7 7b3e
00000140: 00d3 343e 8776 9dbe c335 20be ef82 4b3d
00000150: 4940 ce3e e618 5a3e 0074 68be 0037 78be
00000160: 2ec6 1c3e 798b a03d ba46 a93d 09fe 39be
00000170: 9212 583d 1d76 0abb cc3f 8bbc 4982 aab9
00000180: 4dbc 1d3e a6d1 8c3d 20bc 8ebe 1721 70bd
00000190: 73fa 30be d14b 27be 6dfe 0cbe 737a 6cbd
000001a0: 3ad9 42be 4606 f73c e99d 4a3d c56f e6be
000001b0: 9410 8f3b fd00 9dbe cc30 05bc c02b 3e3e
000001c0: 4a45 4abe 6aa8 853e 666c 7fbd 9835 8d3d
000001d0: b6b0 853d 124a 5bbe b876 29be 9001 90be
000001e0: d068 453e 2ee0 ddbd faa6 6a3d c19d 4f3e
000001f0: 9e25 87bb f144 83be 7eaf e4bd 2072 9cbc
00000200: a187 913d 543e 06be 70ca 63bc 18d3 0d3e
00000210: 5cc8 c0bd 0898 e43c a66c 483d 8d8e 463d
00000220: c119 ae3d f8d9 abbd 2351 363b 4469 9bbc
00000230: 27f6 66be 5baa 91be ff6b 07be 6fed 38be
00000240: 8d59 893c 9e01 0d3f b74a 4abd bbc4 f6bc
00000250: 1463 64be a045 90be 22e9 52be c195 633d
00000260: 0d9f 3cbe 64f8 cbbd 180f 3e3e 8aa9 a63d
00000270: 7d93 c53d ee57 80be d20b b33d 8bfb f4bc
00000280: b487 bf3d 3364 95be bc80 4e3e 89d2 2fbe
00000290: 9199 9e3e 8e0c bfbe a3b9 47bc afbe 9e3e
000002a0: 20b8 afbe a193 333e efa1 b8bd 4f0a 2dbe
000002b0: cb88 54be 022c 8cbe eedc 8b3d 95a4 113e
000002c0: 3ac8 3c3e a6d9 78bd 8085 d2bd 4e70 86be
000002d0: 50f1 6e3e ac67 febc 8398 fa3c 38cb 393e
000002e0: 25e5 93bd d3d3 cabe 88c3 99bc b4c4 993e
000002f0: 48dd d4bc 164b 2b3e 772a fcbc a1c2 0d3e
00000300: 0e28 e13c be5d 62be 4f54 83bc 7f35 e33d
00000310: bccd c0bd 3644 50bd 4953 1dbd d429 56bd
00000320: 2af0 d9bd 73ed 563d 2644 a4bd 019d 5cbe
00000330: 4bed 0a3e 25ae 71bc 363a d4bd 1411 d5bd
00000340: 5cde 2d3e 9469 2cbe 3c45 373e e02a 373e
00000350: 15a4 083d dd01 643d 053d 8fbe a04d 08bd
00000360: 5c15 dc3d 59d4 55be 2f12 c03c 0fcb d13c
00000370: 8c44 233e e7ca 4dbe f53b cb3e 4ae8 cb3d
00000380: 2084 e2bd 3421 93bd 5ca5 00bf 34fd b0be
00000390: 3204 63be b66b 02be 3c6c 7e3e 4bc2 fa3c
000003a0: 8f9d b8be 8777 a7be 6dbf 41be af0d 403e
000003b0: f48e 9ebe 0c65 9abe c08e 7f3e 4703 06be
000003c0: 1e5d b23c 5116 2e3e 823e 63bb 5c7b 433e
000003d0: 7dc7 c03d c45a a2be c267 5b3e 1ba2 283e
000003e0: fc5c 6ebc 6695 17be 0f67 25be 15d4 483d
000003f0: 43d2 753e 38ba 0bbe a8d3 ca3a 32ba a2be

mobilebone.1.1.weight f4 [64]
1.0203674 1.0325894 1.06081 1.068043 1.0816009 1.0056777 1.0279988 1.0435477
1.0352328 1.0328377 1.0291051 1.0143384 1.0290911 1.034627 1.0407294 1.0895615
0.98470277 1.0670894 0.9899795 1.0135719 1.0782338 1.0693966 1.1015295 0.9767929
1.0603765 1.0678715 1.057248 1.042161 1.0697998 1.0656184 1.0519154 0.9945046
1.0124657 1.0670464 1.0226992 1.053967 1.0817192 1.0519763 1.0931313 1.0301343
1.0825654 1.0364271 1.0726154 1.013657 0.98333704 0.99915713 1.0022213 1.0407286
1.0516005 1.0146219 1.0879095 1.0652015 1.0371057 1.0044664 1.0344752 1.0070704
0.9605152 1.0467465 1.0015265 0.993842 1.0301291 1.020851 1.0620686 1.0271045
00000000: 669b 823f e42b 843f 9fc8 873f a2b5 883f
00000010: e671 8a3f 0cba 803f 7795 833f f992 853f
00000020: 8282 843f 0734 843f b7b9 833f d7d5 813f
00000030: 42b9 833f a86e 843f 9f36 853f c076 8b3f
00000040: 7b15 7c3f 6396 883f 4c6f 7d3f b9bc 813f
00000050: 9103 8a3f fde1 883f ebfe 8c3f 190f 7a3f
00000060: 6bba 873f 03b0 883f e753 873f 8865 853f
00000070: 33ef 883f 2f66 883f 2aa5 863f da97 7e3f
00000080: 7a98 813f fa94 883f cfe7 823f 64e8 863f
00000090: c675 8a3f 29a7 863f baeb 8b3f 71db 833f
000000a0: 8191 8a3f a5a9 843f 764b 893f 83bf 813f
000000b0: fabb 7b3f c3c8 7f3f ca48 803f 9836 853f
000000c0: d89a 863f 21df 813f 9e40 8b3f 8658 883f
000000d0: e1bf 843f 5b92 803f af69 843f afe7 803f
000000e0: 53e4 753f cafb 853f 0532 803f 6e6c 7e3f
000000f0: 45db 833f 3fab 823f ddf1 873f 2978 833f

mobilebone.1.1.bias f4 [64]
0.029994491 0.04320609 -0.03420256 0.08098006 0.07179199 0.0073809484 0.041980308 0.06482616
0.06535882 -0.045559816 -0.040980127 0.04094201 -0.01964715 0.05353788 -0.047921464 0.090681635
-0.01578328 -0.019741923 -0.01882746 0.016362876 0.089433566 0.075641975 0.09211717 -0.027552228
-0.024553139 0.0870535 0.074118465 0.033942416 -0.05440643 -0.03918064 -0.036235295 -0.014689294
-0.006937161 -0.03974519 -0.0439899 0.06481326 0.07491589 0.06982365 0.07217505 -0.03232279
0.086674765 0.053002328 -0.046395693 0.02514284 -0.019443218 -0.000342075 -0.0019858652 -0.017246205
0.0001284722 0.016655786 -0.03199324 0.08171363 0.05518621 -0.052678183 -0.02689502 -0.010548455
-0.025981976 0.053284805 -0.007785299 0.011061029 0.04374263 -0.009870211 0.06792634 0.060158346
00000000: 02b7 f53c def8 303d fc17 0cbd e0d8 a53d
00000010: ae07 933d e2db f13b 8bf3 2b3d 94c3 843d
00000020: d8da 853d ee9c 3abd c7da 27bd cfb2 273d
00000030: 0ff3 a0bc 894a 5b3d 4c49 44bd 4bb7 b93d
00000040: f04b 81bc d0b9 a1bc 0c3c 9abc 700b 863c
00000050: f228 b73d 2eea 9a3d eda7 bc3d 36b5 e1bc
00000060: aa23 c9bc 1b49 b23d 6ccb 973d 3407 0b3d
00000070: 47d9 5ebd e17b 20bd 766b 14bd 5dab 70bc
00000080: 2051 e3bb dacb 22bd c12e 34bd d1bc 843d
00000090: 816d 993d b4ff 8e3d 83d0 933d e764 04bd
000000a0: 8a82 b13d f818 593d 6909 3ebd 5bf8 cd3c
000000b0: 6247 9fbc 8858 b3b9 4a25 02bb ea47 8dbc
000000c0: 7eb6 0639 b771 883c 580b 03bd 7a59 a73d
000000d0: ef0a 623d 14c5 57bd f252 dcbc 6dd3 2cbc
000000e0: 27d8 d4bc 2b41 5a3d d21b ffbb 5139 353c
000000f0: 792b 333d aab6 21bc f71c 8b3d 9968 763d

mobilebone.1.1.running_mean f4 [64]
-0.6993715 -0.5944199 0.12159468 -0.7785962 -0.418462 -0.05334651 -0.10683683 -0.85481745
-0.25366408 0.12453078 0.11774694 -0.23279876 0.29772308 -0.90655816 0.1761529 -0.8193798
-0.054501038 0.9351674 0.49607185 -0.27865165 -1.4794158 -0.55693984 -0.7930764 -0.877463
0.47234902 -0.85222125 -1.1472607 -0.78564286 0.15920906 0.12443921 0.73594654 -0.12249421
0.057999518 0.49793094 0.3308169 -0.235061 -0.64270365 -0.66497344 -0.7194852 0.6182162
-0.8796879 -1.3321153 0.22429658 -0.707764 -0.3852005 0.10885125 0.75256556 0.0249416
-0.15361711 -0.47004387 0.65709233 -0.56038624 -0.42636347 0.18793625 0.44635782 0.4425718
0.20595554 -0.55475706 0.40038654 0.693102 -0.16917346 0.37862462 -0.4702818 -0.5431983
00000000: 030a 33bf e72b 18bf a206 f93d 1552 47bf
00000010: a740 d6be df81 5abd 45cd dabd 51d5 5abf
00000020: 42e0 81be fe09 ff3d 4f25 f13d cc62 6ebe
00000030: 296f 983e 3214 68bf 6d61 343e e0c2 51bf
00000040: 7b3c 5fbd 2167 6f3f 21fd fd3e 6eab 8ebe
00000050: 7f5d bdbf 9c93 0ebf 0e07 4bbf 6aa1 60bf
00000060: bbd7 f13e 2c2b 5abf 70d9 92bf e41f 49bf
00000070: b307 233e fcd9 fe3d fe66 3c3f 3fde fabd
00000080: e790 6d3d cef0 fe3e d560 a93e d5b3 70be
00000090: 3a88 24bf b33b 2abf 2f30 38bf 6b43 1e3f
000000a0: 3a33 61bf c182 aabf 01ae 653e 0630 35bf
000000b0: 0039 c5be 67ed de3d 23a8 403f 5452 cc3c
000000c0: ce4d 1dbe 97a9 f0be 3437 283f 7975 0fbf
000000d0: 504c dabe 5c72 403e 0389 e43e c598 e23e
000000e0: 02e6 523e 8f04 0ebf 77ff cc3e 226f 313f
000000f0: cf3b 2dbe 16db c13e c7c8 f0be 0b0f 0bbf

mobilebone.1.1.running_var f4 [64]
0.45664427 0.1287736 0.18042445 0.5222899 0.30639577 0.75925905 0.1214475 0.4729521
0.7104169 0.23422578 0.17533147 1.557939 0.14479014 0.47134307 0.19821282 0.31933483
0.15233134 0.31515115 0.12009471 0.23648763 1.092888 0.5714006 0.24846047 0.95783913
0.22202484 0.44093823 0.9507702 0.18812431 0.12531443 0.15114236 0.27044535 0.113876045
0.1552593 0.25323564 0.16102642 0.6500524 0.13929531 0.18521668 0.17326176 0.4231815
0.33676624 0.64651823 0.18969147 0.32607192 0.5840923 0.27176735 0.72159976 0.1284621
0.19587883 0.13029787 0.2361288 0.47948804 0.44181532 0.1846658 0.13458623 0.08028105
0.15103805 0.09756443 0.29025006 0.3643245 0.7304844 0.15230957 0.5994438 0.36114874
00000000: 47cd e93e 3add 033e 30c1 383e cab4 053f
00000010: e8df 9c3e cd5e 423f 78b9 f83d c726 f23e
00000020: e2dd 353f e2d8 6f3e 188a 333e 8c6a c73f
00000030: de43 143e e153 f13e 4df8 4a3e db7f a33e
00000040: bffc 1b3e 7e5b a13e 37f4 f53d d029 723e
00000050: c1e3 8b3f 4f47 123f 6c6c 7e3e f234 753f
00000060: 7b5a 633e a8c2 e13e ad65 733f a9a3 403e
00000070: 6d52 003e 10c5 1a3e d077 8a3e d837 e93d
00000080: 4bfc 1e3e 1aa8 813e 1ce4 243e d669 263f
00000090: 6ea3 0e3e 71a9 3d3e 886b 313e 3fab d83e
000000a0: a06c ac3e 3882 253f 7b3e 423e e6f2 a63e
000000b0: 1387 153f 1725 8b3e c3ba 383f 928b 033e
000000c0: 7694 483e ce6c 053e c0cb 713e 757f f53e
000000d0: 9e35 e23e 0819 3d3e f9d0 093e 646a a43d
000000e0: b8a9 1a3e dccf c73d a89b 943e be88 ba3e
000000f0: 0701 3b3f 0af7 1b3e 2675 193f 7de8 b83e

fc.weight f4 [2, 64]
-0.011764122 -0.06543044 0.13762175 0.010271816 -0.14716741 -0.101566195 -0.046121314 -0.03658968
-0.12637056 0.11740673 0.10266569 -0.1163495 0.0751228 -0.13189548 0.115262516 -0.09415545
0.096762694 0.16936125 0.021419263 -0.042548306 -0.17408119 -0.13049547 0.019233689 -0.038677625
0.16530655 0.008255655 -0.021635076 -0.06800431 0.05142986 0.13002972 0.015683526 -0.040145792
0.116943136 0.18068682 0.119112186 -0.12601103 -0.13570793 -0.045089126 -0.15978901 0.07768477
-0.09217228 -0.035330873 0.087409586 -0.05984176 0.090990774 -0.087382875 -0.007116432 0.12769394
0.017097272 -0.13438305 0.06770244 -0.16909385 0.02957459 0.04691534 0.12737344 0.12077517
-0.0304416 -0.08478588 -0.0012582178 0.026636967 -0.11298961 0.03778775 -0.17128813 -0.12492641
0.095681734 0.016576434 -0.1578031 0.123953916 0.19815838 -0.032516368 0.027593778 0.052952472
0.0007725055 -0.03976515 -0.034072958 0.05169898 -0.021777268 -0.052875817 -0.03255661 0.04601329
0.06568665 -0.15481454 -0.013477895 0.0054685646 0.01796015 -0.009454337 0.19314717 -0.06592441
-0.0966908 0.16366003 0.15030564 0.058300175 -0.08904325 -0.1737155 -0.15134364 -0.11047831
-0.060964912 -0.07480829 -0.10695484 0.076192304 0.12655059 0.044194344 0.08661369 -0.10409066
0.07819415 0.096612446 -0.077076554 -0.010440658 -0.054200802 -0.040716726 0.12465589 -0.15891284
-0.10978818 -0.014415166 -0.092361525 -0.023992946 0.10569703 -0.11763614 -0.13662693 -0.058635358
-0.03433075 0.14941764 0.044100225 -0.061804734 0.069211476 -0.14448926 -0.03334099 -0.025809875
00000000: 4ebe 40bc 6500 86bd b7ec 0c3e 1e4b 283c
00000010: 0eb3 16be f001 d0bd b4e9 3cbd 0fdf 15bd
00000020: 4967 01be f172 f03d 6442 d23d a648 eebd
00000030: fcd9 993d 9c0f 07be c10e ec3d 93d4 c0bd
00000040: 852b c63d 096d 2d3e 7377 af3c 2247 2ebd
00000050: 5742 32be 9ba0 05be f88f 9d3c 6e6c 1ebd
00000060: 1f46 293e ba42 073c 0b3c b1bc d845 8bbd
00000070: 1ea8 523d 8326 053e bd7a 803c ea6f 24bd
00000080: e27f ef3d f705 393e 17f1 f33d 0909 01be
00000090: 05f7 0abe 60af 38bd bb9f 23be 3119 9f3d
000000a0: d2c4 bcbd 1bb7 10bd cc03 b33d a21c 75bd
000000b0: 5f59 ba3d cbf5 b2bd f530 e9bb 33c2 023e
000000c0: 940f 8c3c b69b 09be 94a7 8a3d f026 2dbe
000000d0: 6946 f23c 4d2a 403d 2f6e 023e f958 f73d
000000e0: aa60 f9bc 38a4 adbd c9ea a4ba c535 da3c
000000f0: 1967 e7bd 54c7 1a3d 2866 2fbe 6bd9 ffbd
00000100: c9f4 c33d 4dcb 873c 2397 21be 8ddb fd3d
00000110: 08ea 4a3e e22f 05bd 590c e23c b1e4 583d
00000120: f781 4a3a c8e0 22bd 1690 0bbd 4fc2 533d
00000130: 3e66 b2bc 5094 58bd 145a 05bd 6e78 3c3d
00000140: b986 863d b487 1ebe 64d2 5cbc a531 b33b
00000150: 2a21 933c 5de6 1abc 5fc8 453e 6103 87bd
00000160: d305 c6bd 7f96 273e b9e9 193e 2acc 6e3d
00000170: 4f5c b6bd 7ae2 31be d4f9 1abe 7442 e2bd
00000180: 58b6 79bd 1735 99bd 240b dbbd b60a 9c3d
00000190: 7a96 013e 2105 353d 8562 b13d 7c2d d5bd
000001a0: 4124 a03d bfdc c53d 50da 9dbd 4b0f 2bbc
000001b0: a901 5ebd 95c6 26bd 964b ff3d 0cba 22be
000001c0: a0d8 e0bd 972d 6cbc 0a28 bdbd db8c c4bc
000001d0: af77 d83d 37eb f0bd eee7 0bbe a12b 70bd
000001e0: 679e 0cbd f000 193e 70a2 343d f626 7dbd
000001f0: bfbe 8d3d fef4 13be 9090 08bd 3b6f d3bc

fc.bias f4 [2]
-0.02880776 0.015447271
00000000: 40fe ebbc 8d16 7d3c
